…
- `answers=` adicionar uma resposta ao invés de esperar abrir o console. Essa opção é útil quando as classficações são feitas automaticamente (e.g., por um quebrador de Captchas que usa o áudio no lugar da imagem.)
- `path=` colocar uma pasta para classificar os Captchas. Por padrão é a pasta onde os originais estão.

---

# Carregar modelo pré treinado

```{r, echo=TRUE, eval=FALSE}
modelo <- decryptr::load_model("tjmg")
modelo$model
```

.small-code[

```
# Layer (type)                   Output Shape                Param #    
# ======================================================================
# conv2d_4 (Conv2D)              (None, 40, 110, 4)          104        
# ______________________________________________________________________
# max_pooling2d_4 (MaxPooling2D) (None, 20, 55, 4)           0          
# ______________________________________________________________________
# conv2d_5 (Conv2D)              (None, 20, 55, 16)          1616       
...
# max_pooling2d_6 (MaxPooling2D) (None, 5, 13, 32)           0          
# ______________________________________________________________________
# flatten_2 (Flatten)            (None, 2080)                0          
# ______________________________________________________________________
# dense_3 (Dense)                (None, 16)                  33296      
...
# reshape_2 (Reshape)            (None, 5, 10)               0          
# ______________________________________________________________________
# activation_2 (Activation)      (None, 5, 10)               0          
# ======================================================================
# Total params: 48,698
# Trainable params: 48,698
# Non-trainable params: 0
```

]

---

# Resolver captcha

A função `decrypt` resolve o Captcha a partir de uma imagem e um modelo.

```{r,  echo=TRUE, eval=FALSE}
decrypt('img/tjmg/captchad217d7f4a06.jpeg', modelo)
#> "46247"
```

Também é possível chamar `decrypt` com o nome do modelo no lugar do próprio modelo carregado.
…
